params.npz (npz, 82138 bytes, 6 tensors)

W1 f4 [784, 25]
000000 22 a0 75 bd 1c a0 48 3d 80 f4 40 3d 80 6d f4 3c
       -0.059967168 0.048980817 0.047108173 0.02983737
000010 f4 54 87 bc 31 3e 93 bd f0 06 bb 3c c7 fb af bd
       -0.016520001 -0.071895964 0.022830456 -0.085929446
000020 59 96 95 bd 56 20 83 bd 90 5f 7d bc d0 9a b0 3b
       -0.07304067 -0.06402652 -0.015464678 0.005389549
000030 e4 2b 5e 3d 47 27 ae bd 90 92 79 bc e0 00 84 3d
       0.054241076 -0.08503585 -0.015232697 0.064454794
000040 65 9d 04 bd 84 f5 1f 3d 30 a5 bb 3c a0 dd 8c 3d
       -0.032376666 0.0390525 0.022905916 0.06878209
000050 10 8a 19 3c 9b 4e a6 bd c4 1d 84 3d 38 ea 3a bd
       0.009371296 -0.081204616 0.0645099 -0.045633525
000060 84 5e 5c 3d 40 bb 6e 3d 04 e5 25 3d 64 67 3e 3d
       0.053801075 0.058284044 0.04050161 0.04648532
000070 60 72 7d 3b c8 78 0d bc 42 82 93 bd 38 87 aa bd
       0.003867291 -0.0086347535 -0.07202579 -0.08326572
000080 4a f9 9f 3d c8 55 89 3d 48 42 f8 3c 64 98 df 3c
       0.0781122 0.067058146 0.030305043 0.027294345
000090 dd e7 8e bd 6c f6 57 3d a9 07 5f bd 74 49 86 3d
       -0.06977818 0.05272524 -0.054450665 0.06556979
0000a0 ec aa 6a bd fe d0 05 3d c0 17 da bb 78 fd 3e 3d
       -0.05729191 0.032670014 -0.0066556633 0.046628445
0000b0 a8 fd c1 3c 04 9c a9 bd 0c f3 6f 3d aa d3 f6 bc
       0.023680523 -0.08281711 0.058581397 -0.030130226
0000c0 78 86 0a bd 8e 04 ca bc 66 1e 84 3d e6 1c 18 3d
       -0.033819646 -0.024660375 0.064511105 0.037136935
0000d0 f0 de 52 3d 4c db ae 3d fe 78 22 bd 12 77 a6 bd
       0.05148214 0.08537921 -0.03966617 -0.081281796
0000e0 d0 d8 0e bc b4 04 de 3c 84 da 92 bc 34 d9 f7 3c
       -0.008718684 0.027101852 -0.017926462 0.030254938
0000f0 c0 b1 c0 bc a0 2b a5 3d ec df a4 3c d3 2a 72 bd
       -0.023522258 0.080649614 0.020126306 -0.05912287
000100 11 53 37 bd 00 ba 1b 39 7d 28 4c bd 56 c5 93 3d
       -0.044756953 0.00014851242 -0.0498433 0.07215373
000110 80 a0 47 3c 8b a1 51 bd d2 99 8f 3d 65 06 91 bd
       0.012184262 -0.05117945 0.07011761 -0.07081298
000120 00 62 2d b9 7a b5 8f bd 64 f1 ab 3c 8c 5b 93 bd
       -0.00016535074 -0.07017036 0.020989127 -0.071951956
000130 44 a5 e7 3c d0 78 d5 3b 40 32 db 3c fe 60 6e bd
       0.028277047 0.006514646 0.02675736 -0.058197968
000140 1a 11 76 bd 90 e6 6f bc 90 dc 80 bb 30 73 89 bb
       -0.060074903 -0.014642373 -0.003932543 -0.0041946396
000150 b6 63 89 bd 24 b1 8b 3d 16 a1 03 bd b0 2e 29 bc
       -0.067084715 0.06820896 -0.032136045 -0.010326073
000160 da 38 87 bd 4e a7 0c 3d ac 1b 44 3d 9c 89 76 3d
       -0.066026405 0.03433924 0.047877952 0.06018983
000170 3c 23 2b 3d 30 89 f6 bb ee be 93 3d 80 e9 91 bc
       0.04178165 -0.0075236782 0.07214151 -0.017811537
000180 24 e2 11 bd c0 a0 fb ba 6c 04 9a 3d 83 10 54 bd
       -0.035616055 -0.0019197688 0.07520375 -0.05177356
000190 88 cf 4c bc a8 b2 5b 3c fe f2 88 3d 7d 57 91 bd
       -0.012500651 0.013409294 0.06686972 -0.07096765
0001a0 e0 01 4c bc 52 67 9b 3d 30 80 ab bc 3e 2d 4a bd
       -0.012451619 0.07588066 -0.020935148 -0.049359553
0001b0 89 7d 2f bd 03 30 83 bd a3 e6 81 bd 86 ee 81 3d
       -0.04284433 -0.06405642 -0.063428186 0.06344323
0001c0 28 7e 4e 3d 50 5c 83 3c e8 4b d2 bc 38 80 b9 bc
       0.05041328 0.016035229 -0.02567096 -0.022644147
0001d0 1c 1a 7e bd 1b c0 a3 bd 6a 1a 89 3d ea 9d 85 bd
       -0.06203662 -0.079956256 0.06694491 -0.0652426
0001e0 08 9c 24 3d 80 49 86 bb 20 50 a9 3b 22 ba 2e bd
       0.040187865 -0.0040981174 0.0051670223 -0.04265798
0001f0 dc 1c aa 3c 38 8b 46 3d 63 7d 3e bd a4 5a 26 3d
       0.020765714 0.048472613 -0.046506297 0.040613785
000200 6c 77 17 3d 64 cb 3e bd cc a7 90 3c 1a 39 5c bd
       0.036979124 -0.046580687 0.017658137 -0.053765394
000210 c6 36 1f 3d 48 70 7b 3d 43 b4 a0 bd 3a 63 68 bd
       0.038870595 0.061386377 -0.07846882 -0.056735255
000220 c4 d3 6c 3d f0 20 8d bd dc 51 21 bd f0 dc 0a 3d
       0.057819143 -0.06891048 -0.039384708 0.03390211
000230 f8 1d 3b 3d fd 21 08 bd ac c1 52 3d 40 d3 e9 ba
       0.045682877 -0.03323554 0.05145423 -0.0017839447
000240 c2 e6 fd bc 04 1c 89 3c 27 e4 9e bd 9b 82 ac bd
       -0.030993823 0.016736992 -0.0775836 -0.084233485
000250 6e 92 f6 bc b8 7e 6d 3c aa 65 01 3d b7 36 8b bd
       -0.03009912 0.014495544 0.031591095 -0.067975454
000260 88 bf 4f 3d 20 69 01 3c c0 60 63 3c a8 6e 3d 3d
       0.050719768 0.007898599 0.0138780475 0.04624811
000270 2c 5d 13 3d 08 54 d4 bc 72 3d 81 bd a0 30 51 3c
       0.035977527 -0.025918975 -0.06310548 0.012767941
000280 58 6b 6b bc f4 ec 77 3d 20 8c 8f bc a2 9c 4f bd
       -0.014368854 0.06052871 -0.017522871 -0.050686486
000290 5e 6c 30 bd d8 86 ea 3c b4 d0 99 bc 70 e8 47 3d
       -0.043072097 0.028628752 -0.018776275 0.048805654
0002a0 97 49 85 bd 18 d9 73 3d 34 34 b6 3c 40 f4 f0 3a
       -0.06508177 0.05953321 0.02224169 0.0018383339
0002b0 64 1d 03 3d 2c d6 84 3c 53 a0 73 bd 86 ce 84 bd
       0.03201045 0.016215406 -0.05947907 -0.06484704
0002c0 18 b2 8b 3d 70 0c 26 3d 60 37 c2 bb 36 49 8c 3d
       0.06821078 0.040539205 -0.0059270114 0.068499014
0002d0 b8 37 8b 3c 95 56 32 bd 22 2b 6f bd 18 b7 bc 3c
       0.016994342 -0.043539602 -0.058390744 0.023036525
0002e0 92 79 29 bd ae 3a 04 3d d0 9a aa 3d 68 66 4f 3d
       -0.041375704 0.032282524 0.083303094 0.05063477
0002f0 ac 91 ac 3d e0 83 78 3d f4 48 a5 3c 6a c5 8b 3d
       0.08426222 0.06067264 0.020176388 0.06824763
000300 a6 36 18 bd 17 34 4a bd 28 3d 8a 3c 40 5c 4b 3d
       -0.03716149 -0.049366083 0.016874865 0.049648523
000310 90 35 a6 bc 28 9c a0 3c 4c 12 8a bd 88 f6 49 3d
       -0.020289212 0.019605711 -0.06741771 0.049307376
000320 22 15 04 bd 88 fa 3e 3c 4c 8c 93 bc c4 f2 ac 3d
       -0.032246716 0.011656411 -0.018011235 0.08444741
000330 c3 1f 14 bd cf 74 a5 bd b1 fa 9b bd 00 da 88 3a
       -0.036163103 -0.0807892 -0.07616175 0.0010440946
000340 d2 93 a4 3d a4 31 87 3d 1c 66 49 3d 51 46 03 bd
       0.08036007 0.06601265 0.049169645 -0.03204948
000350 5c 9e 94 3d 60 09 4a 3d 84 80 93 bd 33 60 09 bd
       0.07256767 0.049325347 -0.07202247 -0.03353901
000360 c4 86 95 3c 72 f1 06 3d 1c f3 63 3d c4 73 58 bd
       0.018252738 0.032945104 0.05565177 -0.052844778
000370 38 99 a5 bc ce 1c f9 bc 10 ae e8 3b 36 b6 af 3d
       -0.020214662 -0.030409243 0.007100828 0.08579676
000380 49 d4 84 bd e0 b4 15 bc 0a ca 87 3d 00 b8 ef 38
       -0.06485803 -0.009137362 0.06630333 0.00011430681
000390 88 16 66 3c f3 1e 34 bd 60 35 08 bb 8e 5b a6 bd
       0.014043458 -0.043974828 -0.0020783767 -0.081229314
0003a0 46 6d a3 3d 68 89 35 bd 2d 0e 81 bd 5f 76 84 bd
       0.07979827 -0.044320494 -0.06301532 -0.0646789
0003b0 d5 bb 0b bd 8c 81 ee bc a2 e4 ed bc b0 16 56 bc
       -0.034114677 -0.029114507 -0.029039685 -0.013066933
0003c0 c0 3c a0 3d 22 e5 92 3d 68 e3 4e 3d e6 66 46 bd
       0.07824087 0.0717261 0.05050984 -0.048437975
0003d0 7f f1 52 bd 10 ce 9d 3d 3e 79 a4 bd 00 37 eb b9
       -0.05149984 0.07705319 -0.080309376 -0.0004486367
0003e0 40 2c 1b bc 28 08 be 3c cc 8f 8d 3d 50 53 a7 3b
       -0.009470999 0.023197249 0.06912193 0.005106367
0003f0 04 1f 64 bd 98 c8 e1 bc 50 4e 98 bd d8 12 bd 3c
       -0.05569364 -0.02756147 -0.07436812 0.023080274

b1 f4 [25]
000000 00 00 00 00 00 00 00 00 00 00 00 00 00 00 00 00
       0.0 0.0 0.0 0.0
000010 00 00 00 00 00 00 00 00 00 00 00 00 00 00 00 00
       0.0 0.0 0.0 0.0
000020 00 00 00 00 00 00 00 00 00 00 00 00 00 00 00 00
       0.0 0.0 0.0 0.0
000030 00 00 00 00 00 00 00 00 00 00 00 00 00 00 00 00
       0.0 0.0 0.0 0.0
000040 00 00 00 00 00 00 00 00 00 00 00 00 00 00 00 00
       0.0 0.0 0.0 0.0
000050 00 00 00 00 00 00 00 00 00 00 00 00 00 00 00 00
       0.0 0.0 0.0 0.0
000060 00 00 00 00
       0.0

W2 f4 [25, 15]
000000 44 ea 98 3e e0 76 14 3e e0 19 a7 bd 86 90 b8 3e
       0.2986623 0.14498472 -0.08159232 0.36047763
000010 4c a1 2e 3e 76 55 af 3e b8 0b 21 bd 46 35 9a 3e
       0.17053717 0.3424489 -0.039317816 0.3011877
000020 6a e6 91 3e 24 32 e4 bd 4a c1 3f be ef 2a b6 be
       0.28496104 -0.11142376 -0.18726078 -0.3557963
000030 c0 b1 c3 bb d2 21 82 3e 58 74 73 3e 54 80 d9 3d
       -0.005972117 0.25416428 0.2377485 0.1062018
000040 dc 66 67 3e b4 65 34 3e 98 f7 c4 3e 26 db 24 be
       0.22597831 0.17616922 0.3847015 -0.16099223
000050 28 2f a5 be a2 0f 20 be 08 35 31 3e 18 0b 8d bd
       -0.3226254 -0.15630963 0.17305386 -0.068868816
000060 20 1d 76 3d fc 82 1d 3e 7c 90 a9 3e 80 38 b8 3b
       0.06008637 0.15381998 0.33118045 0.0056219697
000070 f4 42 a3 3e 28 4d 06 3d ac f5 90 3d 58 27 c5 3e
       0.3188702 0.032788426 0.07078108 0.3850658
000080 b8 e8 59 bd 7c d3 c7 3d de 1e 80 3e 2c ac c8 3d
       -0.053200454 0.09757134 0.2502355 0.09798464
000090 a4 ff f8 bd 28 5e c3 3d 40 27 87 bd 00 98 ea bb
       -0.121581346 0.09539443 -0.06599283 -0.007159233
0000a0 28 60 a9 be e3 8c 7f be 85 62 66 be b4 30 5b be
       -0.33081174 -0.24956088 -0.2249852 -0.21405298
0000b0 04 58 88 3e a4 ea 3a 3e 88 05 8d bd 00 4b 55 bb
       0.2662965 0.18253571 -0.068858206 -0.0032545924
0000c0 80 df 26 bd 20 a8 3c bc 28 25 7d 3e 88 95 2f be
       -0.04074049 -0.0115146935 0.24721205 -0.17146885
0000d0 ce 80 8b be 85 39 bc be a8 39 c5 3e 6d 84 ab be
       -0.27246708 -0.36762634 0.3852055 -0.3349947
0000e0 20 2f bd bd ee 3e b9 3e d0 e0 bc bc 44 27 4f 3e
       -0.09237504 0.36180824 -0.023056418 0.20229822
0000f0 98 71 89 3e 58 c7 ec bd b2 7d 88 be da 29 c6 3e
       0.26844478 -0.11561459 -0.26658398 0.38703805
000100 e4 a4 b9 3d 58 46 b3 3e b0 61 15 3e 9c 9e 81 3d
       0.090646535 0.35014606 0.14588046 0.063290805
000110 88 8e b0 3e 50 d5 3e 3e 68 89 fd 3d 6c 72 32 3e
       0.34483743 0.1863606 0.12379724 0.17426461
000120 04 71 b3 3d 30 ea cb bc d0 c7 9c be e8 90 bb bd
       0.087617904 -0.024891943 -0.30621195 -0.09158498
000130 38 83 76 3e a0 37 15 3d 48 35 c0 3d c4 c9 f9 bd
       0.24073493 0.03643 0.093851626 -0.12196687
000140 64 7a 86 3e 00 3d ce 3a e4 97 3d be a6 77 9a 3e
       0.26265252 0.0015734732 -0.18514973 0.3016941
000150 dc 37 d8 3d 42 f3 12 be f0 d3 93 bd a0 61 0f 3d
       0.10557529 -0.14350608 -0.07218158 0.03500521
000160 67 ad bb be c0 89 6f bc 68 1a 1b bd ca 6b a4 be
       -0.36655733 -0.0146202445 -0.03786698 -0.32113487
000170 42 5b c1 be ae f0 a4 3e fa 17 be be ec 24 b7 3e
       -0.37764937 0.32214874 -0.37127668 0.35770357
000180 46 80 9a 3e fe b5 69 be 20 4e c2 3d f0 21 fd 3d
       0.3017599 -0.22823331 0.094875574 0.12359989
000190 50 64 c0 bc e0 0e d1 3d 62 a3 47 be f0 07 f2 bd
       -0.023485333 0.10207915 -0.1949592 -0.1181792
0001a0 60 6e 2d bc 5c d8 b8 bd 7c 3c c2 3e 80 4e 9e be
       -0.0105853975 -0.09025642 0.3793677 -0.30919266
0001b0 90 b6 c3 3e 3c a1 a6 bd e8 57 64 be 74 64 08 3e
       0.38225222 -0.08136222 -0.22299159 0.1331957
0001c0 e8 50 9e 3e 48 b0 25 3e 82 6f 99 3e 86 b9 00 be
       0.30921102 0.16180527 0.29967886 -0.12570772
0001d0 0c 75 69 be b4 0c b3 bd 8d 77 a9 be 30 da b7 3e
       -0.22798556 -0.08742657 -0.33099023 0.3590865
0001e0 d0 ce 7a 3d 8b 9a 63 be e0 4b c3 3e 38 12 8d 3e
       0.061232388 -0.22226922 0.38143826 0.27552962
0001f0 8b ee 9c be 38 35 8a be 64 c8 c0 3e ce d0 4a be
       -0.30650744 -0.26993728 0.37652886 -0.19806215
000200 74 93 30 be e4 1d c8 bd a6 c9 90 be 7c 12 02 be
       -0.17243749 -0.09771326 -0.28278846 -0.12702364
000210 2b 13 95 be a8 67 00 be e0 2e 8d 3d c4 1a 9f 3e
       -0.29116186 -0.12539542 0.06893706 0.31075108
000220 f0 0d 76 be cc 80 60 3e d0 42 25 3d 20 0c 49 bc
       -0.24028754 0.21924132 0.04034692 -0.012270957
000230 c0 46 95 bb 6c 83 e3 3d 46 f3 b9 3e d8 2c 13 be
       -0.004555553 0.11109051 0.36318415 -0.14372575
000240 7c 73 b5 3e e8 ce ae 3e 54 e3 3b 3e 8c a9 ab be
       0.3543967 0.34142232 0.18348438 -0.33527792
000250 45 1c 4e be 6a 92 59 be d8 83 36 be 2a e4 8c 3e
       -0.20127971 -0.21247259 -0.17823732 0.27517825
000260 e8 ac 45 3e 30 b2 9a 3e d9 c7 a7 be 88 2e 58 3e
       0.1930424 0.3021407 -0.3276966 0.211115
000270 80 42 c8 bc 34 bd 5b 3e d0 a6 51 3e 1c dd 06 3e
       -0.024445772 0.21458894 0.2047379 0.13170284
000280 48 11 f3 3d fc 39 a4 be 80 0e d7 3b c0 f8 7f 3e
       0.118685305 -0.3207549 0.006563008 0.24997234
000290 00 c8 03 bc 40 3a 92 be 00 60 fd 3b 54 4b a0 3d
       -0.008043289 -0.28560066 0.0077323914 0.07826868
0002a0 50 d3 13 bd 48 13 62 3e 4e b3 a3 3e 34 a6 ae bd
       -0.036090195 0.22077668 0.31972736 -0.085277945
0002b0 70 b8 1e be 58 1a 89 be 2a 67 84 3e d1 ed bf be
       -0.15500045 -0.2677791 0.25859958 -0.37486127
0002c0 ec 47 3b 3e 17 8f 8f be 10 c7 b0 3c 2c d6 ac be
       0.18289155 -0.28038856 0.021579295 -0.3375715
0002d0 b0 c6 dd bd 8c 1f c1 bd cf ef ac be 40 7c 50 3e
       -0.10828912 -0.09429845 -0.3377671 0.20359898
0002e0 c0 c4 a2 bb 80 50 2f 3e 00 ac b8 3b 7d db b8 be
       -0.004967302 0.17120552 0.0056357384 -0.36104956
0002f0 8c 14 c8 3d 69 90 4e be ea fd 8d 3e 04 ec 82 3e
       0.09769544 -0.20172276 0.27732784 0.2557069
000300 60 be 6e bd 1a c5 03 be 90 87 b0 3d 1d 4a 0e be
       -0.058287024 -0.12868157 0.086196065 -0.1389546
000310 20 3d 7b 3c f0 4b f2 bc 9a 83 86 be 40 e1 3f bd
       0.015334398 -0.029577225 -0.2627228 -0.046845675
000320 bd 59 a8 be 32 ab 97 3e b0 90 6e 3e ae 2d c4 3e
       -0.32880965 0.296228 0.23297381 0.383161
000330 7d 17 b4 be 1a 7d 86 3e f8 f5 f8 3d 28 0e 53 3d
       -0.3517417 0.2626732 0.1215629 0.051527172
000340 66 18 6c be 3e 7b 8a 3e b0 9f 6b 3e 7e 29 44 be
       -0.23056182 0.2704715 0.23010135 -0.19156453
000350 90 18 4a bd 90 70 c5 be 10 41 ce 3d bc 93 21 3e
       -0.04933983 -0.3856244 0.100710034 0.15779012
000360 54 e4 8e 3e 99 d7 c2 be 48 74 08 bd 10 b1 2b 3e
       0.27908576 -0.38055113 -0.03331402 0.16766763
000370 24 d9 65 3e e4 ff d6 bd c8 ec 87 3e a1 f2 b5 be
       0.22446114 -0.10498026 0.26547837 -0.35536674
000380 a0 df 06 bc 70 9a f0 3d 66 93 ab 3e 7c 87 09 3e
       -0.008232027 0.117482066 0.33510894 0.1343059
000390 78 98 f7 bd d0 3d 90 3e b0 14 f4 bd 9c 15 4e be
       -0.12089628 0.2817216 -0.11918008 -0.20125431
0003a0 32 72 be 3e 08 cd 16 3e 54 23 a9 bd 40 7c a1 3c
       0.371965 0.1472665 -0.082586914 0.019712567
0003b0 d0 c3 95 be 08 4f 9c 3d 3c bd 85 3e 14 cd 62 3e
       -0.29250956 0.076322615 0.26120937 0.22148544
0003c0 38 c6 e0 bd e4 6a 59 3e c8 50 b3 bd 50 26 db 3c
       -0.10975307 0.21232182 -0.08755642 0.026751667
0003d0 ec 2e ad 3e c8 28 bb bd e0 20 20 3e 48 be 33 3e
       0.3382486 -0.09138638 0.15637541 0.17553055
0003e0 60 50 02 bc dc e1 c7 3d ac 2b 73 3e 40 a1 5a bc
       -0.007953733 0.09759876 0.23747128 -0.013344109
0003f0 4c 2e 3c 3e 85 ee 53 be 9c f7 b1 3e a7 86 53 be
       0.18377036 -0.20696457 0.34759223 -0.20656835

b2 f4 [15]
000000 00 00 00 00 00 00 00 00 00 00 00 00 00 00 00 00
       0.0 0.0 0.0 0.0
000010 00 00 00 00 00 00 00 00 00 00 00 00 00 00 00 00
       0.0 0.0 0.0 0.0
000020 00 00 00 00 00 00 00 00 00 00 00 00 00 00 00 00
       0.0 0.0 0.0 0.0
000030 00 00 00 00 00 00 00 00 00 00 00 00
       0.0 0.0 0.0

W3 f4 [15, 10]
000000 ce fc 87 be 07 16 c8 3e 9d 92 ac be f4 da b4 be
       -0.26560062 0.39079306 -0.33705607 -0.35323298
000010 96 65 38 3e 6e e4 94 be a8 d8 17 bd 60 6e 65 3c
       0.18007502 -0.29080528 -0.037071854 0.014003366
000020 0f 94 f9 3e 50 bf fb 3c fc 01 e4 3d aa f1 0e be
       0.48745772 0.030730873 0.11133191 -0.13959375
000030 e0 a2 c8 be 3c d1 ab bd 48 1f f7 bd a0 7d 0d bc
       -0.39186764 -0.08389518 -0.12066513 -0.008635908
000040 53 15 dc 3e 6c 66 bd bd c1 8d d8 be 47 d3 ac 3e
       0.4298502 -0.09248051 -0.4229565 0.33754942
000050 0c ee 37 be e1 69 d5 3e 8a 8d 2c 3e 7c 1a fe bd
       -0.17961901 0.41682342 0.16850868 -0.12407395
000060 05 6d b0 3e 94 5e d7 3d 2b e2 9c 3e 5c ae 9a be
       0.34458175 0.10516086 0.30641302 -0.3021115
000070 10 1f a7 be df 11 b7 be 00 53 cd 3b 98 d9 26 bd
       -0.32640886 -0.35755822 0.006265998 -0.040734857
000080 0a b1 66 3e 96 0e b2 be 66 a0 2a 3e f2 c2 13 3e
       0.22528473 -0.34776753 0.1666275 0.14429834
000090 cf ae e7 3e 6a d9 44 3e 5f 01 e1 3e b4 0a dd 3d
       0.45250556 0.19223562 0.4394636 0.10793057
0000a0 aa 29 2a 3e ec c8 b1 3d f4 ec b9 be df ab 89 3e
       0.16617456 0.08680901 -0.36313593 0.2688894
0000b0 30 bd a1 bd 3e e1 41 be b0 01 86 be 8f b0 97 3e
       -0.07897413 -0.1893358 -0.26173162 0.2962689
0000c0 b7 15 f9 3e 92 71 f9 be 58 d3 8c bd 0c 19 ad 3d
       0.4864938 -0.4871946 -0.06876248 0.08452043
0000d0 aa b3 71 3e 43 7b aa 3e 4a 41 97 be 9c c3 d6 be
       0.23603693 0.33297166 -0.29542 -0.41946113
0000e0 0d 04 e0 3e 7d a5 97 be 56 a7 71 3e 10 4f 33 bd
       0.4375309 -0.29618445 0.2359899 -0.04377657
0000f0 1c 8c 11 be 5a d2 3b 3e 52 78 54 3e 85 79 a3 3e
       -0.14213604 0.18341962 0.20749024 0.3192865
000100 de 03 57 3e 8f b2 8f 3e 90 38 fc bc d7 bd c9 3e
       0.20997569 0.28065917 -0.03078869 0.3940265
000110 6b 1d be 3e 58 6c 18 3d 25 49 ad 3e dd 84 b8 3e
       0.3713182 0.0372127 0.33844867 0.36038867
000120 c6 9d 2d 3e 40 68 95 3b 0e 34 65 be c5 c7 99 be
       0.16954717 0.0045595467 -0.22383139 -0.30035225
000130 4c ed ff bd 38 84 3b 3d a6 ff 25 3e e8 4c fa be
       -0.12496433 0.04578039 0.16210803 -0.488868
000140 71 bb ab 3e c3 42 b5 3e 4c 79 a0 3d 46 34 30 3e
       0.33541444 0.35402498 0.078356355 0.1720744
000150 81 c9 d7 3e ac 69 08 be 6c d4 8d 3d 8d ad 80 3e
       0.42145923 -0.1332156 0.06925282 0.2513241
000160 dc 23 a7 3d c2 18 00 3e 5d ca a4 3e e6 3d 1e 3e
       0.081611365 0.12509444 0.3218564 0.154533
000170 be 1f 03 3e b0 c9 14 be f4 67 08 be 3a 45 08 3e
       0.12805077 -0.14530063 -0.13320905 0.13307658
000180 fc 49 c0 be ae 6f 27 be 02 91 7e 3e ab 81 ac 3e
       -0.37556446 -0.16351196 0.24860004 0.3369268
000190 06 dd 10 3e 07 aa b4 3e 44 fb 9d 3d 70 12 7d bd
       0.14146814 0.3528597 0.07713941 -0.06178516
0001a0 3c a7 9a 3d b0 a5 24 be fe 83 6f 3e 88 bd 56 3d
       0.07551429 -0.1607883 0.23390195 0.052426845
0001b0 35 e3 f8 3e cf f5 81 3e de 5c 9a be c7 bf c7 be
       0.48610845 0.2538285 -0.30148977 -0.39013502
0001c0 e4 1d d8 3d 9d 26 e6 3e ff 63 91 3e af 77 a4 3e
       0.10552576 0.44951335 0.28396603 0.3212256
0001d0 88 0c 23 bd a9 d8 94 be c7 36 dd 3e 91 99 d5 3e
       -0.039806873 -0.2907155 0.43205854 0.41718724
0001e0 12 f8 2d 3e 34 48 ca be 8f 2c db 3e 05 0f f2 3e
       0.16989163 -0.39508212 0.42807433 0.47277084
0001f0 30 64 bf bc a9 af e3 3e c4 67 e2 3d d0 0c a6 bd
       -0.023363203 0.44469956 0.11054948 -0.081079125
000200 64 71 b2 bd 1e 78 30 3e ec 23 65 be 60 63 23 bd
       -0.08713034 0.17233321 -0.22376984 -0.039889693
000210 f0 af 78 bd b0 61 27 be 5f 4f 89 be e0 b6 8e be
       -0.060714662 -0.16345859 -0.26818368 -0.27873898
000220 06 21 26 3e 2a 6e c1 be 68 a0 c0 be 16 5e e7 be
       0.16223535 -0.3777936 -0.3762238 -0.4518897
000230 bc 21 93 3d d7 83 e1 3e 9f e2 dc 3e 80 dc de bb
       0.07184169 0.44045898 0.43141648 -0.006801188
000240 e2 cb 51 3e 43 b7 e7 be 78 58 8d bd 30 04 e1 be
       0.20487931 -0.45257005 -0.0690164 -0.43948507
000250 3e b9 48 be 98 57 bb bd
       -0.19601914 -0.091475666

b3 f4 [10]
000000 00 00 00 00 00 00 00 00 00 00 00 00 00 00 00 00
       0.0 0.0 0.0 0.0
000010 00 00 00 00 00 00 00 00 00 00 00 00 00 00 00 00
       0.0 0.0 0.0 0.0
000020 00 00 00 00 00 00 00 00
       0.0 0.0
